superres/model_4x4_3x3_clamp.pth (torch_old, 19861 bytes, 8 tensors)

weight f4 [4, 1, 3, 3]
0	0xbdb61201	-0.08890153
1	0xbde46a2c	-0.11153063
2	0xbe38ca22	-0.18045858
3	0xbdd6f957	-0.104967766
4	0xbf8cbf15	-1.0995814
5	0xbf38eeb8	-0.72239256
6	0xbee02ea7	-0.43785593
7	0xbdeae48f	-0.11469375
8	0xbc86de11	-0.016463311
9	0xbde5355b	-0.111918174
10	0xbd2d7bbe	-0.042354338
11	0x3f6cc31b	0.9248521
12	0xbd2fafe6	-0.04289236
13	0x3e99344a	0.29922706
14	0x3a6948fb	0.00088991196
15	0xbeab30d9	-0.33435705
16	0x3ed532ea	0.41640407
17	0x3f0ccc96	0.54999673
18	0xbd07d46f	-0.033161577
19	0xbd675d38	-0.056485385
20	0x3ec36176	0.38160294
21	0x3bf79d79	0.007556614
22	0x3ef005c1	0.4687939
23	0x3f6fd235	0.93680125
24	0x3e83098a	0.25593215
25	0xbeff07b0	-0.49810553
26	0xbf3a59d0	-0.72793293
27	0x3e01c12c	0.12671345
28	0xbe41850e	-0.18898413
29	0xba4515f0	-0.00075182226
30	0xbea547b7	-0.32281277
31	0xbe65558a	-0.22395912
32	0xbcb01ff1	-0.021499606
33	0x3f516a20	0.8180256
34	0x3ddead8e	0.10872947
35	0x3f4268ca	0.75941145

bias f4 [4]
0	0xbe905522	-0.2818995
1	0x3c5185dd	0.012788263
2	0x3e9e927f	0.30971143
3	0x3d763675	0.060110528

weight f4 [4, 4, 3, 3]
0	0xbee00ac2	-0.43758208
1	0xbe849933	-0.25898132
2	0xbe059635	-0.1304558
3	0x3e762624	0.24037987
4	0xbe89025c	-0.26759613
5	0xbe8ceba7	-0.27523538
6	0xbe93489a	-0.28766328
7	0xbee30ef2	-0.4434734
8	0xbd7216e4	-0.05910386
9	0x3e8d1658	0.2755611
10	0xbd3ccd2f	-0.046094116
11	0xbcbd4cc2	-0.02310789
12	0xbecb92c4	-0.3976041
13	0x3da9b35f	0.082861654
14	0x3ce1b009	0.02754976
15	0x3d93cedb	0.07217189
16	0x3e404f84	0.18780333
17	0x3ce44dac	0.027869068
18	0x3cb9af44	0.022666581
19	0xbe36b188	-0.1784116
20	0x3d9c5842	0.07634021
21	0x3c1043d4	0.008805234
22	0x3df5c5eb	0.120006405
23	0xbdb54353	-0.08850732
24	0xbdd9dde3	-0.10638025
25	0x3e5c0206	0.21485147
26	0xbe1ee8d9	-0.15518512
27	0x3ec717c7	0.38885328
28	0x3dfb5d4d	0.12273655
29	0x3db8d6ee	0.090253696
30	0xbe048eca	-0.12945095
31	0x3e3a978d	0.18221875
32	0xbdc07995	-0.0939819
33	0x3ba32d5c	0.0049797725
34	0x3dc73852	0.09727539
35	0xbe67b2e4	-0.22626835
36	0x3e75c6ec	0.24001664
37	0x3d581863	0.052757632
38	0xbe2192f1	-0.1577871
39	0x3ebe1ed0	0.37132883
40	0xbedd8833	-0.43267974
41	0x3e8f536c	0.27993333
42	0xbcaf9a87	-0.021435989
43	0x3e78e564	0.24306256
44	0x3d6038a1	0.054741506
45	0x3d75a943	0.059975874
46	0xbe0f1671	-0.13973404
47	0x3d027165	0.031846423
48	0x3d5c1e99	0.053740118
49	0xbe46c53e	-0.1941118
50	0xbd149a9f	-0.03628027
51	0xbe58fab0	-0.2118938
52	0x3e2d8686	0.16945848
53	0xbdede1aa	-0.11615308
54	0xbd95dd9e	-0.07317661
55	0x3eb40d38	0.35166335
56	0xbdfa2039	-0.12213177
57	0x3cf234d5	0.029566208
58	0xbe596ea8	-0.21233618
59	0x3e982124	0.29712784
60	0x3d49220b	0.04910473
61	0xbb764beb	-0.0037581872
62	0xbd383b18	-0.04497823
63	0x3d8ae0d3	0.06781163
64	0x3d89cf18	0.06728953
65	0xbe4a1a05	-0.19736488
66	0x3ebdb6e7	0.37053606
67	0xbe9e4203	-0.30909738
68	0x3f10e88c	0.5660484
69	0x3e072e4a	0.13201252
70	0xbd97feac	-0.07421622
71	0x3d98c70d	0.07459841
72	0xbe1b2ef1	-0.15154625
73	0x3c5006e4	0.012696955
74	0x3c121f72	0.00891863
75	0x3ef35d6c	0.47532213
76	0x3e30c84d	0.17263909
77	0xbf0c28f6	-0.5475
78	0x3ebdfdf5	0.37107816
79	0x3e9e739a	0.30947572
80	0xbe202430	-0.15638804
81	0xbcd8509f	-0.02640563
82	0x3db959f6	0.09050362
83	0x3b7d2b8d	0.0038630695
84	0x3dfea127	0.12433081
85	0x3dd4edd3	0.10396924
86	0x3de32e1a	0.110927776
87	0xbe59f260	-0.21283865
88	0x3eb64b17	0.35604164
89	0xbe5c39b9	-0.21506394
90	0x3d21b6d6	0.039481007
91	0xbe970df7	-0.29502842
92	0xbd18b395	-0.037280638
93	0x3d6817d7	0.05666336
94	0x3e9c54d0	0.30533457
95	0x3d8c0af9	0.0683803
96	0xbd35d7b9	-0.044395182
97	0x3df6b1ba	0.120456174
98	0xbe267915	-0.16257127
99	0xbe0939fc	-0.13401026
100	0xbbf028fb	-0.007329104
101	0xbd40be14	-0.047056273
102	0x3e19d999	0.15024413
103	0x3deee448	0.11664635
104	0x3e2acd38	0.16679847
105	0xbce7ed0b	-0.028311273
106	0x3dcf0269	0.101078816
107	0xbe2ea798	-0.1705612
108	0x3de46b81	0.11153317
109	0xbf0062c4	-0.50150704
110	0xbe3332c6	-0.17499837
111	0x3e97023e	0.29493898
112	0xbcf5adc7	-0.02999009
113	0xbe37279f	-0.17886208
114	0xbe2cd961	-0.16879798
115	0x3e697d8b	0.22801797
116	0xbd8f187e	-0.069870934
117	0xbf323aa8	-0.6962075
118	0x3d97c2bb	0.07410189
119	0xbe0f6844	-0.14004618
120	0x3ea5a9f7	0.32356235
121	0x3f0d9707	0.55308574
122	0xbeab1b15	-0.334191
123	0x3cdd8a94	0.027043618
124	0xbdbf16e9	-0.09330542
125	0x3dce5604	0.10075
126	0xc017ad0f	-2.3699377
127	0xbf0aab12	-0.5416728
128	0x3ed9c231	0.4253097
129	0x3d97cf50	0.074125886
130	0x3ee7db27	0.45284387
131	0xbe4a6348	-0.19764435
132	0xbe804e79	-0.2505987
133	0xbdc8872e	-0.097914085
134	0x3d736ca2	0.059429772
135	0xbead0eca	-0.33800346
136	0xbf3391c2	-0.70144284
137	0x3ef3214b	0.47486338
138	0x3e6bdecc	0.23034209
139	0xbe4cdb56	-0.20005545
140	0x3ddc464a	0.10755594
141	0xbd374d94	-0.04475172
142	0xbe3b7da7	-0.18309651
143	0x3d142fc5	0.03617837

bias f4 [4]
0	0x3d6f1908	0.05837348
1	0x3dad5592	0.08463587
2	0xbc335d10	-0.010947481
3	0xbd13ef22	-0.036116727

weight f4 [4, 4, 3, 3]
0	0xbd94d152	-0.07266487
1	0xbd83efa3	-0.064421915
2	0x3d967dfc	0.07348248
3	0x3d8c9da2	0.068660036
4	0x3e980e15	0.29698244
5	0x3d0a9453	0.03383286
6	0xbe1d7c70	-0.153795
7	0x3c60dabd	0.013724026
8	0x3e574022	0.21020558
9	0x3dd99d2e	0.10625683
10	0xbec4b620	-0.384202
11	0x3edcb76b	0.43108687
12	0x3da5a7b5	0.08088628
13	0x3db6c982	0.08925153
14	0xbe944b2c	-0.28963602
15	0xbdc654b1	-0.09684122
16	0x3e209373	0.15681247
17	0x3dffea3c	0.124958485
18	0x3dc3dc3f	0.09563493
19	0xbcee12ea	-0.029061753
20	0x3de292d2	0.1106316
21	0x3c89a399	0.016801642
22	0x3f036260	0.51321983
23	0xbdcb88af	-0.0993818
24	0x3cae677d	0.021289581
25	0xbdb9e8ee	-0.09077631
26	0xbe5e7be3	-0.21726947
27	0xbcdbdfb1	-0.026840063
28	0x3e4672f8	0.19379795
29	0x3e967183	0.29383478
30	0x3db71304	0.08939174
31	0x3d25edb0	0.04050988
32	0x3ed2341c	0.4105538
33	0xbe0a23dd	-0.13490243
34	0xbdc28c47	-0.09499412
35	0xbec77cf6	-0.38962525
36	0x3e4c0295	0.1992286
37	0xbe0f0de8	-0.13970149
38	0x3da5bc06	0.08092503
39	0xbd4fc12d	-0.050721336
40	0x3dc70b50	0.097189546
41	0xbe44f640	-0.19234562
42	0xbe5ccc74	-0.21562368
43	0xbe1897fc	-0.14901727
44	0x3e82de6e	0.25560325
45	0x3d5e855a	0.054326393
46	0x3dea2c8f	0.1143428
47	0x3e0d15a8	0.13777792
48	0x3e2b4433	0.16725235
49	0xbdc65ab1	-0.09685267
50	0xbe82a86c	-0.2551912
51	0xbe82a5c3	-0.2551709
52	0xbd9d279c	-0.076735705
53	0x3d67e8d6	0.056618534
54	0xbe343e0d	-0.17601795
55	0x3da59456	0.080849335
56	0x3ced3a04	0.028958328
57	0x3eeed0fa	0.4664381
58	0xbe953244	-0.29139912
59	0x3d8dcce6	0.06923847
60	0x3e462c84	0.19352919
61	0x3ea9dba8	0.33175397
62	0xbea726ca	-0.3264678
63	0x3a0303ce	0.00049978204
64	0xbde292a4	-0.11063126
65	0xbe11d69b	-0.14242022
66	0xbdbbdfa5	-0.09173516
67	0x3ecd6a66	0.40120238
68	0x3e4c4d33	0.19951324
69	0xbe0add2b	-0.13560931
70	0x3eed3858	0.4633205
71	0x3e975494	0.29556715
72	0x3e02dbd4	0.1277917
73	0xbe76f385	-0.24116333
74	0xbdfe296c	-0.12410244
75	0x3edd2a0b	0.4319614
76	0x3e895b53	0.26827487
77	0x3db727ac	0.08943114
78	0xbc72b28e	-0.014813079
79	0x3d76aad5	0.060221512
80	0x3e6d2f6a	0.23162618
81	0xbe2f7832	-0.17135695
82	0x3e3a6717	0.18203388
83	0xbd006c50	-0.031353295
84	0xbe076e5c	-0.13225693
85	0xbeb844e0	-0.35990047
86	0x3e677f1e	0.22607085
87	0xbe11ec1b	-0.14250223
88	0x3d39f141	0.045396093
89	0x3e2a4f99	0.16631927
90	0xbdadc856	-0.08485477
91	0x3e1fc2f5	0.15601714
92	0x3cc7f0e3	0.024406856
93	0x3f2c6720	0.67344856
94	0x3ec287ca	0.37994224
95	0x3dd84a3a	0.105610326
96	0x3e426dfa	0.18987265
97	0x3e9c30d9	0.30506018
98	0xbc9738d0	-0.018459707
99	0xbc0ccd24	-0.008593831
100	0xbc8412f6	-0.016122323
101	0xbeaa3c6d	-0.33249226
102	0x3ea0bd47	0.31394407
103	0x3fceb4bc	1.6148906
104	0x3eb07261	0.34462264
105	0xbf1979c2	-0.5995141
106	0xbe6d7c37	-0.23191915
107	0x3ecf9840	0.40545845
108	0xbdc438d6	-0.09581153
109	0xbd260e4e	-0.040540986
110	0x3e55551a	0.20833245
111	0xbce00965	-0.02734823
112	0x3d389d5e	0.045071952
113	0xbde78aba	-0.11305757
114	0xbe016a6d	-0.12638254
115	0x3ea447a9	0.32085922
116	0x3e3f68a7	0.18692265
117	0x3de44734	0.111463934
118	0xbe9ea92a	-0.30988437
119	0x3e91f853	0.2850977
120	0xbcdf0eb6	-0.027228694
121	0xbc40253c	-0.011727627
122	0x3f054c95	0.5206998
123	0x3d012edf	0.03153884
124	0xbb4bd8ef	-0.0031104644
125	0xbe190093	-0.14941625
126	0x3c87ab6d	0.016561234
127	0xbd8522bc	-0.06500766
128	0x3da6d012	0.08145155
129	0x3d916c11	0.0710069
130	0xbdcebf62	-0.10095097
131	0x3e838779	0.25689295
132	0xbecdd205	-0.40199295
133	0x3f276b6d	0.65398294
134	0xbe7db1f2	-0.24774912
135	0xbd076aae	-0.033060722
136	0x3e91ba5d	0.28462496
137	0x3e5c3da9	0.21507896
138	0x3d609f47	0.0548394
139	0x3e26b226	0.16278896
140	0xbf0cdb38	-0.55022
141	0xbdb2574d	-0.087080576
142	0xbf2d1f63	-0.6762602
143	0x3e0409c0	0.12894344

bias f4 [4]
0	0xbd93cb5d	-0.07216523
1	0x3e1d9df8	0.15392292
2	0xbcdd7893	-0.027035033
3	0xbcacabe7	-0.021078063

weight f4 [4, 4, 3, 3]
0	0xbd56ae99	-0.052412603
1	0x3e11d812	0.1424258
2	0x3df440d0	0.119264245
3	0x3e7a29b6	0.24429974
4	0xbdf7ca19	-0.12099094
5	0xbda64001	-0.081176765
6	0x3e65f09e	0.2245507
7	0x3e13584d	0.14389153
8	0xbdf73148	-0.120699465
9	0x3d156374	0.0364718
10	0x3e471ef5	0.19445403
11	0x3dd979b0	0.10618913
12	0xbe500dbe	-0.20317742
13	0x3dee09ca	0.11622961
14	0x3d7c412c	0.06158559
15	0x3d4f5cd0	0.050625622
16	0x3d6399bb	0.05556653
17	0xbd926b33	-0.07149353
18	0x3dbaa3f8	0.09113306
19	0x3e460e9b	0.19341509
20	0xbe0b6bef	-0.13615392
21	0x3e291da7	0.16515218
22	0x3e3fa2c9	0.18714441
23	0x3e201f05	0.15636833
24	0xbe11a84b	-0.14224355
25	0x3cb19afd	0.02168035
26	0xbda147a9	-0.07874996
27	0x3dedc499	0.11609764
28	0xbec73845	-0.38910118
29	0x3e251b89	0.16123785
30	0xbef8ad27	-0.48569605
31	0xbdab1764	-0.08354071
32	0x3d86f777	0.06590169
33	0x3e19b5ae	0.15010712
34	0x3dd2d5c5	0.102946796
35	0x3cb9ab7a	0.022664774
36	0x3e9fd7d4	0.3121935
37	0xbd06971f	-0.032858964
38	0xbd8fd7af	-0.0702356
39	0x3ebe8a56	0.37214917
40	0xbdb4b4a9	-0.08823521
41	0xbe6a3de8	-0.22875178
42	0x3dfb1d0b	0.12261399
43	0xbd9a1ff5	-0.075256266
44	0x3e3c634c	0.18397254
45	0x3e56dfef	0.20983861
46	0x3dfca33b	0.12335821
47	0xbc49f795	-0.012327095
48	0xbe5083b6	-0.20362744
49	0x3e7fabfc	0.2496795
50	0x3ca6d089	0.02036311
51	0x3d3ed3aa	0.046588577
52	0x3d6e2620	0.058141828
53	0xbdbf9695	-0.09354893
54	0xbdc032f0	-0.093847156
55	0x3dc50a90	0.09621155
56	0x3e0a9f12	0.13537243
57	0xbdc40404	-0.095710784
58	0x3eba9b36	0.36446542
59	0x3e664b85	0.22489746
60	0x3cabf492	0.020990644
61	0xbe1968c6	-0.14981374
62	0xbdf42efb	-0.11923023
63	0x3e3dca84	0.18534285
64	0xbe676fa5	-0.22601183
65	0xbd50b4ea	-0.050953783
66	0xbe22cc40	-0.15898228
67	0xbd0d2d25	-0.03446688
68	0xbe3b91ee	-0.18317387
69	0x3d9952ab	0.07486471
70	0x3e3b38f1	0.1828344
71	0x3dbd1659	0.09232778
72	0xbde6127c	-0.11233994
73	0x3e5209fd	0.20511623
74	0x3cc179ce	0.023617651
75	0x3d5129a6	0.05106511
76	0x3dfbe2ce	0.12299119
77	0x3e646208	0.22303021
78	0x3e5ef4a1	0.21773006
79	0xbe102f40	-0.14080524
80	0xbe32a97b	-0.17447464
81	0x3c50e9ff	0.0127511015
82	0x3e810d91	0.25205663
83	0x3de0e343	0.10980847
84	0xbd83799f	-0.06419682
85	0x3e9ae2c1	0.30251125
86	0xbe51a202	-0.20471957
87	0xbe094765	-0.13406141
88	0x3c5237ed	0.012830717
89	0x3db178e3	0.086656354
90	0x3dac4c33	0.08412971
91	0xbc8846c0	-0.016635299
92	0xbe2889ee	-0.16458866
93	0x3deb7845	0.11497549
94	0x3e792e37	0.24334036
95	0x3dab33ba	0.083594754
96	0xbc2ccb4c	-0.010546517
97	0x3ddd5f26	0.10809164
98	0xbd6818b4	-0.056664184
99	0x3ea234c2	0.31680876
100	0xbe371acb	-0.17881314
101	0xbbffe3f5	-0.007809157
102	0xbe9d1937	-0.306833
103	0xbd355af6	-0.0442762
104	0x3e8a4623	0.27006635
105	0xbd9f3406	-0.077735946
106	0x3d0153bd	0.031574
107	0xbd278ace	-0.04090386
108	0x3e0ca562	0.13734964
109	0xbd99a4dc	-0.075021476
110	0xbcd35d98	-0.025801465
111	0x3e4e7216	0.20160708
112	0xbe826134	-0.25464785
113	0x3dff5cc6	0.12468867
114	0x3e1246a2	0.14284757
115	0xbdd24adc	-0.102681845
116	0xbe60a73c	-0.21938795
117	0x3e71e2d4	0.23621684
118	0x3d4095ed	0.04701798
119	0x3d63edfd	0.055646885
120	0xbd99fd00	-0.07518959
121	0x3e09e8e4	0.13467747
122	0xbe68d97a	-0.2273921
123	0xbda3b47d	-0.0799341
124	0xbde02501	-0.10944558
125	0x3dcde724	0.10053852
126	0xbd171f24	-0.036894932
127	0x3d37f7cf	0.044914063
128	0xbd2c8656	-0.0421203
129	0xbdde8338	-0.10864872
130	0x3ed0ae8c	0.4075817
131	0x3e8895b7	0.26676723
132	0x3c9dc5fd	0.019259447
133	0x3dcadc4f	0.09905302
134	0xbde794a1	-0.113076456
135	0x3e7f15be	0.24910638
136	0x3e21fdd5	0.15819485
137	0xbe545d71	-0.2073877
138	0xbcbceb59	-0.023061441
139	0xbe19c1ec	-0.15015382
140	0x3e155aa4	0.14585358
141	0xbd924dfb	-0.0714378
142	0xbc952ab7	-0.018208845
143	0xbc99b073	-0.018760895

bias f4 [4]
0	0xbc841ee5	-0.016128013
1	0xbd30bc24	-0.043148175
2	0xbd41c75c	-0.047309265
3	0xbcb15368	-0.021646217
